diabetes.pt (torch, 6226 bytes, 6 tensors)

weight f4 [20, 8]
0.71701527 -0.651287 0.24022667 -0.02497137 -0.65328413 0.43315035 0.5559553 0.10922822
-0.4049917 0.29002032 -0.32916605 -0.18788832 0.13885802 -0.255359 -0.2597052 0.18897669
-0.2903201 -0.040539317 0.09684733 -0.78174096 0.03616292 -0.20340054 0.29440057 -0.3056547
-0.2224316 -0.019156793 0.12002554 0.17103778 0.0420592 0.17265536 -2.3557718 -0.38195798
0.26417264 -0.10538086 -0.12172225 -0.123435184 -0.18394393 -0.0153849125 -0.19067895 0.10261753
-0.56037825 0.31335184 -0.10075462 0.033284537 0.06338733 -0.3509042 -1.7820915 -0.6554589
0.36474502 -0.41716984 -0.31657055 -0.031367306 0.12720329 0.30539623 -1.2352319 0.57499266
0.5200971 0.30764326 -0.183329 0.45210484 0.2172782 -0.33547017 -0.79107773 0.19151472
-0.34146446 0.11258743 -0.45298618 0.20037664 0.07215357 -0.3724002 1.1768086 0.43176147
-0.1747834 0.12359425 0.070773326 -0.47382468 0.0035371894 -0.23962784 -0.881127 0.3138206
-0.1746371 -0.4347157 0.25960842 0.31445116 0.14584894 -0.22595228 1.6338027 -1.0036222
-0.42693186 0.29195562 -0.39545304 -0.6787544 -0.20130669 0.2658837 -0.22312471 -0.2333684
1.7269264 0.102603294 -0.33604255 0.7768588 0.096176244 -0.17238931 -0.10902484 -0.22047411
0.14393528 -0.2859684 0.41186216 0.30739838 -0.07685086 -0.3346369 -1.2956411 0.22345202
-1.1518607 0.023172136 0.11281157 0.3026629 0.2364015 -0.21664573 0.928146 -0.29914066
-0.4070547 0.32936946 0.03404186 0.0742794 -0.1857245 0.151347 0.5405477 0.18023083
-0.2538134 0.22288269 0.006706267 0.026984913 -0.11038883 -0.28365016 -0.7666462 0.28333625
0.10648155 -0.24656753 0.032443345 -0.045393556 0.07644385 -0.13876458 0.21923432 -0.29843345
0.09843664 -0.1991772 0.30276182 -0.30110994 0.08106796 0.34011433 -1.5907508 -0.25764164
0.9630792 -0.19024114 0.23462333 -0.12434026 0.07100253 0.119926974 1.5993828 -0.17794816
00000000: 508e 373f bfba 26bf fbfd 753e c290 ccbc
00000010: a13d 27bf e2c5 dd3e 1653 0e3f 0cb3 df3d
00000020: 125b cfbe 8b7d 943e 7488 a8be cc65 40be
00000030: cc30 0e3e 6abe 82be 14f8 84be 1b83 413e
00000040: d6a4 94be 8e0c 26bd e557 c63d 2d20 48bf
00000050: 921f 143d 3b48 50be acbb 963e c67e 9cbe
00000060: 1cc5 63be b5ee 9cbc f3cf f53d 8724 2f3e
00000070: 4546 2c3d 91cc 303e f7c4 16c0 ff8f c3be
00000080: a341 873e ecd1 d7bd 8449 f9bd 96cb fcbd
00000090: cc5b 3cbe 0011 7cbc 5841 43be 2429 d23d
000000a0: f374 0fbf a76f a03e 7058 cebd 5e55 083d
000000b0: 37d1 813d b7a9 b3be 931b e4bf 28cc 27bf
000000c0: dcbf ba3e 4997 d5be 8915 a2be 017b 00bd
000000d0: 9441 023e e55c 9c3e 141c 9ebf b832 133f
000000e0: 1525 053f 6b83 9d3e 99ba 3bbe 497a e73e
000000f0: 2d7e 5e3e bfc2 abbe 1284 4abf 6f1c 443e
00000100: 6ed4 aebe 3d94 e63d ceed e7be 892f 4d3e
00000110: 40c5 933d 3dab bebe aaa1 963f d70f dd3e
00000120: 6bfa 32be fb1e fd3d 9bf1 903d 2699 f2be
00000130: 31d0 673b 0061 75be 8a91 61bf 18ad a03e
00000140: 11d4 32be 0e93 debe 65eb 843e beff a03e
00000150: 6d59 153e 0960 67be 7220 d13f b176 80bf
00000160: d096 dabe 357b 953e d278 cabe d9c2 2dbf
00000170: 5723 4ebe e921 883e ce7a 64be 20f8 6ebe
00000180: ed0b dd3f ad21 d23d c50d acbe 38e0 463f
00000190: 0df8 c43d d386 30be 6a48 dfbd f7c3 61be
000001a0: c563 133e 736a 92be 99df d23e 5263 9d3e
000001b0: fc63 9dbd 8755 abbe 91d7 a5bf 9bd0 643e
000001c0: 2c70 93bf 7ed3 bd3c c109 e73d a2f6 9a3e
000001d0: 3c13 723e 61d8 5dbe fa9a 6d3f f728 99be
000001e0: 7969 d0be 1da3 a83e 7a6f 0b3d cc1f 983d
000001f0: 902e 3ebe b5fa 1a3e 5661 0a3f 6e8e 383e
00000200: d4f3 81be 5c3b 643e 3fc0 db3b 770f dd3c
00000210: 8a13 e2bd 983a 91be ed42 44bf 7311 913e
00000220: 0013 da3d 337c 7cbe 50e3 043d 98ee 39bd
00000230: 988e 9c3d 4d18 0ebe f67e 603e 45cc 98be
00000240: 2699 c93d 1cf5 4bbe 9903 9b3e 152b 9abe
00000250: f506 a63d 7723 ae3e b99d cbbf 9be9 83be
00000260: 5c8c 763f 93ce 42be 1941 703e 1ba6 febd
00000270: c669 913d 469c f53d 93b8 cc3f 0b38 36be

bias f4 [20]
-0.17552175 -1.5632569 -0.16649584 2.258625 0.080328345 0.6304792 -0.84357893 0.25609165
1.2908229 2.0356195 0.060483873 0.03268933 -0.09559682 1.9720377 -0.8626781 -1.4675499
1.6106535 -0.055208296 2.406776 -0.6132084
00000000: f9bb 33be cd18 c8bf e37d 2abe 508d 1040
00000010: 3083 a43d 1667 213f caf4 57bf 721e 833e
00000020: af39 a53f 9747 0240 f0bd 773d 3fe5 053d
00000030: 44c8 c3bd bb6b fc3f 79d8 5cbf add8 bbbf
00000040: e529 ce3f 1822 62bd 9e08 1a40 3afb 1cbf

weight f4 [20, 20]
-0.24032709 -0.04220436 0.10209203 0.2556778 -0.18001318 0.0423472 -0.29906723 0.10195681
-0.13590342 0.087549016 1.3957181 0.1999844 -0.0066522122 -0.072864234 0.08309085 -0.1735088
0.16246344 -0.11944218 -0.16482814 0.18221542 0.13388282 -0.07359949 0.51713043 0.2320881
0.09506208 0.462044 0.051019408 0.040912617 -0.29277048 0.082367964 0.7436015 0.35504627
0.024602955 -0.17625633 -0.24653697 -0.038260464 0.100029364 -0.15591198 0.25360775 -0.23304564
0.021811433 0.05923122 -0.044343833 0.04141777 0.20327401 0.003011909 0.09981278 -0.26278177
-0.104451336 -0.15341234 0.14848824 0.19023374 -0.063616164 0.04119274 0.08667737 -0.1433124
0.017064288 0.16119269 -0.20127496 -0.21146174 -0.3120289 0.026775496 0.039913755 -0.16461286
0.142566 -0.28010884 -0.110576235 -0.17411983 0.064405285 -0.3430799 0.18884398 -0.3261353
-0.06690284 -0.15544116 -0.08093795 0.09393477 -0.022282083 0.047580063 0.061803162 0.065779224
0.40135664 -0.030328222 -0.061557937 -0.13562953 -0.18264818 -0.9651012 1.4656507 0.15620658
-1.3852752 -0.20273374 -0.8258678 0.042792767 -0.18134934 0.085991986 0.17879726 -0.071207024
-0.0927705 -0.011349484 -0.1073033 0.099955715 0.43159142 0.045209486 -0.10083756 -0.22450477
-0.0057946146 0.11683553 0.15529196 0.18754837 0.072141506 0.086994395 -1.0788226 -0.14600757
-0.16124634 0.3538945 -0.10765089 0.10874365 0.07707325 -0.16257675 0.07287501 0.036615293
-0.15837032 -0.052673437 0.05657152 -0.12977292 0.1057848 -0.08232188 -0.26659688 0.18039577
0.022934457 -0.09584629 1.2189294 0.09449446 -0.12207886 -0.06073198 -0.039931215 -0.119031295
0.16205499 0.1551468 0.119450584 0.105984926 0.21742468 0.046238847 -0.029995397 0.3629318
-0.12302731 -0.20693359 -2.0232415 -0.2797528 0.11075162 -0.02706596 0.39020002 -0.06762654
-0.25241888 -0.21918932 -0.26680416 0.14930171 -0.15953921 -0.10309565 -0.11432687 0.13831727
0.12376955 -0.2215684 -0.010765203 -0.051796976 -0.18361723 0.10924643 -0.12999281 -0.21202567
0.069822304 -0.017237132 0.081901476 -0.31568393 -0.05195831 -0.046579454 0.048927236 0.10273484
-0.15746997 -0.051296905 -0.07221309 -0.19737563 -0.10720166 -0.016852379 -0.10209309 -0.013494942
-0.1781485 -0.07593256 -0.112255484 -0.26215777 0.119333714 -0.050760105 0.14114447 0.11085445
0.03517154 0.14343241 -0.16285597 -0.061873063 -0.23444444 0.19816312 -0.048542272 -0.21383229
-0.69815546 -0.911152 -0.18381537 0.11898667 -0.17340696 -0.3725708 -0.6816996 -0.5567929
-0.0040692566 0.21418832 0.084006876 0.75182325 -0.36777583 0.7051649 0.24714337 0.0009429803
-0.17203307 -0.19230933 0.3540564 0.3790136 -0.049912646 0.042929344 0.18116891 0.03932588
0.17586952 0.23610637 -0.009672595 0.23172754 -0.04161972 -0.22320157 1.1464919 -0.44751236
0.26764587 0.99930173 0.099889584 -0.29415387 -0.116946235 -0.1591304 -0.07628647 -0.22252801
0.0076838275 0.014986914 -0.0011158695 -0.33309156 -0.17202726 0.03937186 0.20551781 0.15572727
-0.089451544 0.040371884 -0.90465915 -0.14006273 0.11410089 0.38619488 0.0626043 0.11576916
00000000: 4e18 76be 7bde 2cbd a015 d13d 33e8 823e
00000010: 6055 38be 4274 2d3d 571f 99be bbce d03d
00000020: 442a 0bbe e64c b33d e4a6 b23f b6c8 4c3e
00000030: cdfa d9bb d839 95bd 892b aa3d 4aac 31be
00000040: d15c 263e 1a9e f4bd b5c8 28be ae96 3a3e
00000050: 9418 093e 54bb 96bd a962 043f 81a8 6d3e
00000060: e8af c23d 0891 ec3e baf9 503d fd93 273d
00000070: 03e6 95be 89b0 a83d ab5c 3e3f a0c8 b53e
00000080: 238c c93c 8a7c 34be 3074 7cbe 01b7 1cbd
00000090: 32dc cc3d 64a7 1fbe e0d8 813e 84a3 6ebe
000000a0: e4ad b23c 709c 723d e1a1 35bd aea5 293d
000000b0: 1027 503e 7363 453b a56a cc3d 558b 86be
000000c0: 95ea d5bd 2018 1dbe 4d0d 183e a2cc 423e
000000d0: 3149 82bd b8b9 283d e883 b13d 7cc0 12be
000000e0: 68ca 8b3c b20f 253e 061b 4ebe 6d89 58be
000000f0: 41c2 9fbe 4958 db3c 9b7c 233d 4690 28be
00000100: d2fc 113e 6d6a 8fbe cb75 e2bd 784c 32be
00000110: ebe6 833d 2ba8 afbe 5160 413e 35fb a6be
00000120: 5b04 89bd f82b 1fbe ccc2 a5bd df60 c03d
00000130: ea88 b6bc 50e3 423d 5025 7d3d 42b7 863d
00000140: 9e7e cd3e e472 f8bc 2d24 7cbd 78e2 0abe
00000150: 2008 3bbe df10 77bf 719a bb3f 9ef4 1f3e
00000160: b350 b1bf 6f99 4fbe 126c 53bf 7847 2f3d
00000170: a4b3 39be 911c b03d a116 373e fdd4 91bd
00000180: 76fe bdbd 30f3 39bc d5c1 dbbd 95b5 cc3d
00000190: 8df9 dc3e 952d 393d ec83 cebd 94e4 65be
000001a0: c0e0 bdbb 7747 ef3d db04 1f3e ae0c 403e
000001b0: edbe 933d 1e2a b23d dc16 8abf 0283 15be
000001c0: c31d 25be a931 b53e 1278 dcbd feb4 de3d
000001d0: 95d8 9d3d 857a 26be 7e3f 953d ebf9 153d
000001e0: d42b 22be 1ac0 57bd 8ab7 673d 31e3 04be
000001f0: b4a5 d83d 6098 a8bd 637f 88be abb9 383e
00000200: 0be1 bb3c 0f4b c4bd e105 9c3f 5086 c13d
00000210: 7b04 fabd 19c2 78bd ea8e 23bd aec6 f3bd
00000220: bef1 253e cede 1e3e 82a2 f43d a00e d93d
00000230: 93a4 5e3e f264 3d3d e8b8 f5bc 32d2 b93e
00000240: bef5 fbbd 66e6 53be ca7c 01c0 c23b 8fbe
00000250: bfd1 e23d 6fb9 ddbc 4cc8 c73e c97f 8abd
00000260: 0c3d 81be 2a73 60be 8e9a 88be 8ce2 183e
00000270: 3f5e 23be d023 d3bd 3524 eabd 0ba3 0d3e
00000280: e47a fd3d d4e2 62be 8960 30bc 1129 54bd
00000290: 2806 3cbe 98bc df3d d61c 05be 421d 59be
000002a0: fffe 8e3d e334 8dbc f6bb a73d 53a1 a1be
000002b0: 3dd2 54bd 19ca 3ebd ed67 483d a566 d23d
000002c0: cf3f 21be b41c 52bd 75e4 93bd d61c 4abe
000002d0: 8b8c dbbd 000e 8abc 2f16 d1bd e419 5dbc
000002e0: 8f6c 36be 8882 9bbd 34e6 e5bd 8b39 86be
000002f0: 3c65 f43d d4e9 4fbd 2d88 103e a807 e33d
00000300: 0810 103d f2df 123e b7c3 26be 9c6e 7dbd
00000310: 3412 70be 46eb 4a3e 43d4 46bd daf6 5abe
00000320: 51ba 32bf 4241 69bf 193a 3cbe 49af f33d
00000330: 9891 31be 9ac1 bebe dd83 2ebf fb89 0ebf
00000340: 6657 85bb 2f54 5b3e cc0b ac3d 7d77 403f
00000350: 1d4d bcbe b085 343f 2713 7d3e 5632 773a
00000360: 7029 30be bdec 44be e146 b53e 120e c23e
00000370: 3471 4cbd aed6 2f3d 5884 393e 2d14 213d
00000380: 2417 343e dec5 713e ce79 1ebc fc49 6d3e
00000390: 7179 2abd f48e 64be 3fc0 923f 5720 e5be
000003a0: e108 893e 3dd2 7f3f e992 cc3d 569b 96be
000003b0: 8281 efbd 14f3 22be 153c 9cbd 62de 63be
000003c0: 9ec8 fb3b ac8b 753c 5e42 92ba fa8a aabe
000003d0: ea27 30be 6344 213d 4373 523e f876 1f3e
000003e0: 5f32 b7bd fd5c 253d be97 67bf 9b6c 0fbe
000003f0: baad e93d 56bb c53e af36 803d 6218 ed3d

bias f4 [20]
1.1847845 1.7217805 -0.08571007 -0.17796025 -1.4722708 -1.0358359 1.2185977 -0.21519285
-0.075800546 -0.16300617 0.49850556 1.2003903 -1.1351964 -0.16989604 -0.49040845 -1.9326687
-1.4638416 -0.14672726 0.118866876 1.6587504
00000000: 05a7 973f 4e63 dc3f c388 afbd 363b 36be
00000010: 5f73 bcbf 4596 84bf 02fb 9b3f 845b 5cbe
00000020: 513d 9bbd 17eb 26be 1f3c ff3e 64a6 993f
00000030: 1e4e 91bf 3af9 2dbe d116 fbbe b061 f7bf
00000040: 295f bbbf ac3f 16be 7a70 f33d ef51 d43f

weight f4 [2, 20]
0.09282307 0.43772623 -0.14511769 0.14609247 -0.922316 -0.003803312 -0.05072849 0.1184908
0.26684204 -0.10186874 1.7318649 0.17891988 -0.23381951 0.018267596 -0.038843706 -0.25371468
-0.30096462 -0.06149938 0.05582552 0.41021714 -0.08389567 -0.06605891 -0.09613632 0.055473372
0.60816324 0.2228614 -0.115494356 0.082330614 0.15128268 -0.16168791 -1.7838771 -0.23243225
0.090464026 0.034161065 0.13358928 0.39825827 0.43291986 0.09325551 0.05627914 -0.3296211
00000000: 061a be3d a71d e03e bb99 14be 4499 153e
00000010: e71c 6cbf fd40 79bb adc8 4fbd 4eab f23d
00000020: 859f 883e 8fa0 d0bd c0ad dd3f c636 373e
00000030: 626e 6fbe eda5 953c 941a 1fbd e4e6 81be
00000040: 0918 9abe c6e6 7bbd 4da9 643d fb07 d23e
00000050: 7ed1 abbd e549 87bd 1ee3 c4bd 0c38 633d
00000060: 96b0 1b3f c735 643e 4e88 ecbd f49c a83d
00000070: d9e9 1a3e 8491 25be 1656 e4bf b802 6ebe
00000080: 3445 b93d 79ec 0b3d a1cb 083e 82e8 cb3e
00000090: aca7 dd3e bffc be3d f584 663d 19c4 a8be

bias f4 [2]
1.1403525 -1.4854519
00000000: 12f7 913f 4a23 bebf
