HouseWeights.pt (torch, 39196 bytes, 21 tensors)

embeds.0.weight f4 [15, 8]
0	0xbd238d4a	-0.039929666
1	0x3c89e441	0.016832473
2	0x3cec234a	0.02882542
3	0xbd81df48	-0.06341416
4	0x3c0c02d7	0.008545599
5	0x3cbf26b3	0.023333883
6	0x3d26376e	0.040580206
7	0xbda4ece6	-0.08052997
8	0x3f0ff304	0.5623019
9	0x3f220ad4	0.6329777
10	0xbe538e08	-0.2065965
11	0x3f88b543	1.0680317
12	0x3dd90fa6	0.10598688
13	0x3dcf6ac1	0.101277836
14	0xbe271b9f	-0.1631913
15	0x3de2e875	0.11079494
16	0xbe4ac180	-0.19800377
17	0xbe59d36b	-0.21272056
18	0x3dcc6aca	0.09981306
19	0x3e3c795b	0.18405668
20	0xbe99f36f	-0.30068538
21	0xbfae4e21	-1.3617593
22	0xbd9c2498	-0.07624167
23	0x3f4de8bc	0.8043325
24	0xbdc0ef6e	-0.094206676
25	0xbe7ed5e5	-0.24886282
26	0xbed6fedc	-0.41991317
27	0xbf960b16	-1.1722133
28	0xbe8bddd8	-0.2731769
29	0xbd3aea2d	-0.045633484
30	0x3f5ee5f8	0.87069654
31	0x3fdc2e0e	1.7201555
32	0x3e1fe5a2	0.15614942
33	0x3eb76208	0.3581698
34	0xbf197b1f	-0.5995349
35	0xbf3ddc95	-0.74164706
36	0xbdc7c0a4	-0.0975354
37	0xbe4d59dc	-0.2005381
38	0x3fc49d83	1.5360569
39	0xbf6ade04	-0.9174502
40	0x3d1dacad	0.038494755
41	0x3cb674dd	0.022272522
42	0xbd3db80d	-0.046318103
43	0x3d5055ab	0.05086295
44	0x3e2b06fa	0.1670188
45	0x3d142320	0.03616631
46	0xbb23f796	-0.00250194
47	0xbc258c0d	-0.0101041915
48	0xbf82d9b8	-1.0222692
49	0xbfb7707f	-1.4331206
50	0x3d955b54	0.0729281
51	0x4012f1e6	2.2960143
52	0xbe4142d1	-0.18873145
53	0xbd43b940	-0.04778409
54	0xbe64a3e6	-0.22328147
55	0x3db101f1	0.086429484
56	0xbe837037	-0.2567155
57	0xbe16a20b	-0.14710252
58	0x3ecb0458	0.39651752
59	0xbe68a4b8	-0.22719085
60	0xbe046b3b	-0.1293153
61	0xbfcb837b	-1.58995
62	0xbe9dd125	-0.30823627
63	0x3ea05bb5	0.31319967
64	0xbe335e20	-0.17516375
65	0xbe7322a8	-0.23743689
66	0xbe778be5	-0.2417446
67	0x3e342ac9	0.17594446
68	0xbda2b899	-0.079453655
69	0x3d7b3446	0.06132915
70	0xbd8d4fc8	-0.06899983
71	0xbe8ddf1d	-0.27709284
72	0xbe8a1a54	-0.26973212
73	0xbee866a1	-0.453908
74	0xbef030bb	-0.46912178
75	0x3d2bc717	0.041937914
76	0xbf1eba66	-0.6200317
77	0x3eb091a1	0.34486106
78	0x3eb53a0e	0.35395855
79	0xbe67bf59	-0.22631587
80	0x3fe2d462	1.7721064
81	0x3fc6987d	1.5515286
82	0xc0838924	-4.110491
83	0xbc88593b	-0.01664411
84	0x3eeb83b9	0.45998934
85	0x3f71a7b5	0.94396526
86	0x3f892025	1.0712935
87	0xc09bed03	-4.872682
88	0xbe506ec4	-0.20354754
89	0xbeab0034	-0.33398592
90	0x3d82c18f	0.063845746
91	0x3e3205a5	0.17384966
92	0xbf62376b	-0.8836581
93	0xbefed1dd	-0.49769488
94	0xbdc62603	-0.09675219
95	0x3e0ce309	0.13758482
96	0x3d9ac2f7	0.07556718
97	0x3d115c31	0.03548831
98	0xbf182239	-0.5942722
99	0xbf8107bd	-1.0080487
100	0xbe336834	-0.17520219
101	0x3d14e564	0.036351576
102	0x3f70d509	0.94075066
103	0xbf1f0fa5	-0.62133247
104	0x3f11e0c4	0.5698359
105	0x3ec2e9db	0.38069043
106	0xbe6473e5	-0.22309835
107	0xbd888723	-0.066664
108	0x3ee3558e	0.4440121
109	0x3e8dd0da	0.27698404
110	0xbdaebf6e	-0.08532606
111	0xbf1cfd29	-0.6132379
112	0x3f44b5a5	0.7683967
113	0x3daf340d	0.0855485
114	0xc0172361	-2.3615344
115	0x3f88d8c5	1.0691153
116	0x3edeb576	0.4349782
117	0xbe2a9156	-0.16657004
118	0x3ff527ed	1.9152809
119	0xc0379f06	-2.869081

embeds.1.weight f4 [5, 3]
0	0x403c939a	2.946509
1	0x3fe2848c	1.76967
2	0x3fcd7d0e	1.6053789
3	0xbe6b6c6e	-0.22990581
4	0xbf43a7d6	-0.7642797
5	0xbdc87d75	-0.09789554
6	0xbf182336	-0.5942873
7	0x3f245721	0.6419545
8	0x3f4b0da7	0.79317707
9	0xbd12be48	-0.035825998
10	0xbc2b4acd	-0.010454846
11	0x3d2f1b1b	0.04275046
12	0x3f0f3cf7	0.559524
13	0x3e32eeda	0.17473927
14	0xbf5190cf	-0.81861585

embeds.2.weight f4 [2, 1]
0	0x400fee10	2.2489052
1	0x3d02bdc8	0.03191927

embeds.3.weight f4 [4, 2]
0	0x3e018c38	0.12651145
1	0xbe27b46a	-0.16377416
2	0x3e137118	0.1439861
3	0xbdb4c56a	-0.08826716
4	0xbd4611ff	-0.048357006
5	0x3f33b059	0.7019096
6	0xbf1de901	-0.6168366
7	0x3f16a545	0.5884593

bn_cont.weight f4 [5]
0	0x3f17f4bc	0.5935781
1	0x3e9db0ab	0.3079885
2	0x3f9eb012	1.2397482
3	0x3f84d44d	1.0377289
4	0x4002d9e7	2.0445497

bn_cont.bias f4 [5]
0	0x3c048a21	0.008089573
1	0xbf81a842	-1.0129473
2	0xbfa48378	-1.2852621
3	0xbf61a0b5	-0.88135844
4	0x40090d6f	2.141445

bn_cont.running_mean f4 [5]
0	0x428c2962	70.080826
1	0x461be78d	9977.888
2	0x4490c2c0	1158.0859
3	0x43abcb25	343.58707
4	0x42558259	53.377293

bn_cont.running_var f4 [5]
0	0x4410f614	579.845
1	0x4c77520e	6.483359e+07
2	0x480f28e3	146595.55
3	0x48387193	188870.3
4	0x447a6391	1001.5557

layers.0.weight f4 [100, 19]
0	0x3e260341	0.16212179
1	0x3e7f7f2e	0.24950859
2	0x3fd95ec4	1.6982045
3	0x3d241a3f	0.040064093
4	0x3fa87a65	1.3162352
5	0x3f4adb9d	0.79241353
6	0x3dda9f0c	0.10674867
7	0xbe01b4c3	-0.12666611
8	0x3f2f7e22	0.6855184
9	0x3f448505	0.7676547
10	0xbef2167a	-0.47282773
11	0x3f801066	1.0005004
12	0xbf1529fb	-0.5826718
13	0x3f5ec250	0.8701525
14	0xc06a545c	-3.661399
15	0x3f31ea25	0.694979
16	0xc009e8e4	-2.1548395
17	0xc003dde6	-2.0604186
18	0x3f0c140f	0.54718107
19	0xbf5b0f63	-0.85570353
20	0xbf49938f	-0.7874078
21	0xbe67c9f2	-0.2263563
22	0x3ea67b90	0.32516146
23	0x3f9671cb	1.1753477
24	0x3f06325f	0.5242061
25	0xbe5779a1	-0.21042491
26	0x3f229057	0.63501495
27	0x3f0020d2	0.5005008
28	0x3fdf3d20	1.7440529
29	0xbbae211c	-0.0053140055
30	0x3f419c7a	0.7562939
31	0x3ff6a1dc	1.9268146
32	0xbfa96604	-1.3234258
33	0xc0aca1b9	-5.3947415
34	0x3e2f88a4	0.17141968
35	0xbf9f845f	-1.2462271
36	0x3db1465d	0.08655999
37	0xbe1b748c	-0.15181178
38	0xbdc89974	-0.09794894
39	0xbe028667	-0.12746583
40	0x3e2701e5	0.16309316
41	0x3eeeb28e	0.466206
42	0xbcd30fb4	-0.025764324
43	0xc017770d	-2.3666413
44	0xbdd63618	-0.10459536
45	0x3d9e1e5c	0.07720634
46	0xba443480	-0.000748463
47	0x3f0d27a0	0.5513859
48	0x3ea6215c	0.32447326
49	0x3f555296	0.8332914
50	0x3f1cf52a	0.6131159
51	0xbf29965b	-0.6624505
52	0xc01211a3	-2.2823265
53	0x3fe1ef9d	1.7651249
54	0xbff3c827	-1.9045457
55	0xc000762e	-2.007213
56	0x3d303026	0.043014668
57	0x3e8e0f87	0.2774622
58	0x3e803868	0.25043035
59	0xbe1ea8b8	-0.15494049
60	0xbd615934	-0.05501671
61	0x3f004ba2	0.50115407
62	0x3e714e28	0.2356497
63	0xbec7df55	-0.39037576
64	0xbc64690d	-0.013941062
65	0x3f06ddab	0.5268199
66	0x3f116e8c	0.56809306
67	0xbe9daade	-0.30794424
68	0x3ec117c7	0.37713453
69	0xbc93f422	-0.018060748
70	0x3e1d1cc4	0.15343004
71	0x3f2b1e4e	0.66843116
72	0xc0d399c0	-6.6125183
73	0xbf88e56b	-1.0695013
74	0xbfae2686	-1.3605506
75	0x3f398bb2	0.72478783
76	0x3fa7a83c	1.3098216
77	0x3f56c97b	0.83901185
78	0xbf5521f4	-0.83254933
79	0xbe779f4b	-0.24181859
80	0xbd6f9f09	-0.058501277
81	0x3f7309e2	0.94936955
82	0x3ef4baa3	0.47798643
83	0xbe64ba3d	-0.2233667
84	0x3ed9031f	0.42385194
85	0x3f8131b2	1.0093291
86	0xbe1c0298	-0.15235364
87	0x3e09ccea	0.13457075
88	0xbe77092e	-0.24124596
89	0x3eefd750	0.46843958
90	0x3eb77acf	0.35835883
91	0xc054a3d4	-3.3224993
92	0xbf966f2c	-1.1752677
93	0xbfb74b84	-1.431992
94	0x3f8359e6	1.026181
95	0x3dea1d12	0.11431326
96	0x3eb9b2cd	0.36269227
97	0x3d8d6b64	0.06905249
98	0xbbec326c	-0.007208159
99	0xbe90d51a	-0.28287584
100	0xbec3e7f6	-0.3826291
101	0xbdee5183	-0.11636641
102	0x3c33b6be	0.010968862
103	0x3e063f16	0.13110003
104	0x3e1c0212	0.15235165
105	0xbf5f567c	-0.8724134
106	0x3df78049	0.12085015
107	0x3d0307b4	0.03198977
108	0xbe42c06f	-0.1901872
109	0xbff47596	-1.9098384
110	0xc042901a	-3.0400453
111	0x3f91c89c	1.1389346
112	0x3fe41f4e	1.7822053
113	0xbf038a77	-0.51383156
114	0xbe06574c	-0.13119239
115	0x3cdc03b9	0.026857244
116	0x3d83a515	0.06427971
117	0xbd19e754	-0.037574127
118	0x3bccdd1f	0.0062519456
119	0xbff3bd91	-1.9042226
120	0x3d5d85b9	0.054082606
121	0x3c195547	0.009358711
122	0xbcde8c6b	-0.027166566
123	0x3eea4696	0.45756978
124	0x3eeb0f13	0.45909938
125	0x3ee69cee	0.45041603
126	0xbc2c8964	-0.010530803
127	0xbe36023f	-0.17774294
128	0xbe033f93	-0.1281722
129	0x40191e5d	2.3924782
130	0xc02709c4	-2.609971
131	0xbf80e12e	-1.0068719
132	0xbe36a16c	-0.17835015
133	0xbf3e7df3	-0.74410933
134	0xbf09248b	-0.53571385
135	0x3f26bdb0	0.6513319
136	0x3f0d7993	0.5526363
137	0xbe729c4f	-0.2369244
138	0xbef270f6	-0.47351807
139	0xbf100489	-0.5625692
140	0x3f5351a2	0.82546437
141	0x3efd36c0	0.49455833
142	0x3e135c87	0.14390765
143	0xbeeb2c54	-0.45932257
144	0x3ee9dd23	0.45676526
145	0xbe9d64ee	-0.30741066
146	0x3ec38b7e	0.38192362
147	0x3fa39dde	1.2782552
148	0x3f032643	0.5123026
149	0x3feed035	1.865729
150	0x3f52bd32	0.8231994
151	0xc052f329	-3.2960913
152	0x3fb2535f	1.3931693
153	0x3f5196d1	0.8187075
154	0xbf15cc8a	-0.58515227
155	0xbdcc0733	-0.09962311
156	0x3d0d8f39	0.034560416
157	0x3f8d7d66	1.1053894
158	0x3ecd431c	0.40090263
159	0xbec2b8b2	-0.38031536
160	0x3e38ac26	0.1803442
161	0xbe9bf540	-0.30460548
162	0xbe73c24b	-0.23804586
163	0x3e234ae2	0.15946534
164	0xbeb62f3e	-0.35582918
165	0x3dbcf1ae	0.09225784
166	0x3f0b97bc	0.54528403
167	0xc0374895	-2.863805
168	0xbf9f0f37	-1.2426518
169	0xbfc93360	-1.5718803
170	0x3f8bdf93	1.0927604
171	0xbec42765	-0.38311306
172	0xbe486873	-0.19571094
173	0x400c7234	2.1944704
174	0x3ecb594a	0.3971656
175	0x3f5babf5	0.8580926
176	0x3ec14189	0.37745312
177	0xbfa8b371	-1.3179761
178	0x3fc1a782	1.5129244
179	0xbe0f60b2	-0.1400173
180	0x3eaa33ad	0.3324255
181	0x3e225121	0.1585126
182	0x3dfe8408	0.12427527
183	0xbeaf7028	-0.34265256
184	0x3eb8326b	0.35975966
185	0xbf35cf78	-0.710197
186	0x3e089207	0.13336955
187	0x3f5d5e3b	0.8647191
188	0x3f32e3f0	0.69879055
189	0xbf8146f6	-1.009978
190	0x3f8cf9f2	1.1013777
191	0x3f200da2	0.625208
192	0xbe80d788	-0.25164437
193	0x3e311229	0.17292084
194	0xbdf8f99d	-0.12156985
195	0x3e0d1068	0.1377579
196	0xbd712797	-0.058875646
197	0xbe8ff611	-0.2811742
198	0x3eca8b51	0.39559415
199	0x3e445cf0	0.19176078
200	0xbe96e441	-0.2947102
201	0xbef0210d	-0.46900216
202	0xbea27e49	-0.31736973
203	0x3e278560	0.16359472
204	0xbe63e99e	-0.22257087
205	0x3f23c405	0.6397098
206	0x3e1c06af	0.15236925
207	0xbd78766a	-0.060659803
208	0xc0d206dd	-6.563338
209	0x3f21ab2d	0.6315182
210	0x3ec3bc37	0.38229534
211	0xbec805bd	-0.39066878
212	0x3ce65b83	0.028119808
213	0x3f6bbeec	0.920882
214	0x3f608c10	0.8771372
215	0xbd739dc6	-0.059476636
216	0xbe2085a5	-0.15675981
217	0x3f8fe945	1.1243063
218	0x3f014370	0.50493526
219	0xbf4a15fc	-0.78939795
220	0xbef781cc	-0.48341215
221	0xbf19b476	-0.60040987
222	0x3f50603d	0.8139685
223	0xc0675025	-3.6142666
224	0x3fef5cf4	1.8700242
225	0xc006ca07	-2.1060808
226	0xc003f95b	-2.0620944
227	0x3f26757f	0.65023035
228	0x3f283911	0.65712076
229	0x3ed35b00	0.41280365
230	0xbe887851	-0.26654294
231	0x3d5984f6	0.053105317
232	0x3f1123ca	0.56695235
233	0xbbee50e2	-0.0072728256
234	0xbe4052cc	-0.18781585
235	0xbe29160b	-0.16512315
236	0x3f1d4408	0.6143193
237	0x3f186df6	0.5954279
238	0xbf4aeed7	-0.7927069
239	0x3fb600de	1.4219015
240	0xbd6021e5	-0.054719824
241	0x3ec35c2d	0.38156262
242	0x3f11c906	0.5694736
243	0xc07f0ba9	-3.9850867
244	0xbfbb94a2	-1.4654734
245	0xbfbddddf	-1.4833335
246	0x3f68e0a6	0.90967786
247	0x3d968f6e	0.07351576
248	0x3e9478cd	0.28998414
249	0xbeba5501	-0.36392978
250	0x3e1527cc	0.14565963
251	0x3e2b42e3	0.16724734
252	0xbee42f34	-0.44567263
253	0xbe8ec09b	-0.2788132
254	0x3d721658	0.05910334
255	0x3eb1fdcd	0.34763947

layers.0.bias f4 [100]
0	0xbd47cd39	-0.0487797
1	0x3f9f8375	1.2461993
2	0xc002c553	-2.0432937
3	0x3f5931cb	0.84841603
4	0x407984b4	3.8987246
5	0xc01f29f7	-2.4869363
6	0xc021e4a2	-2.5295796
7	0xbe38d875	-0.18051322
8	0x4084a3f0	4.145012
9	0x40483d76	3.1287513
10	0xbf050f07	-0.51976055
11	0x3f665478	0.8997264
12	0x4090c953	4.5245757
13	0x3ec36058	0.38159442
14	0x408e2724	4.442278
15	0x403c8476	2.9455848
16	0x3f3cc252	0.7373401
17	0xbffeb79c	-1.9899783
18	0xbfc0d7b6	-1.506583
19	0xc00e5b60	-2.224327
20	0x4039f661	2.9056628
21	0xbf88a553	-1.0675453
22	0xc023e968	-2.561121
23	0xc006bc52	-2.1052442
24	0x3eb25d5d	0.34836856
25	0xc01f90a7	-2.4932039
26	0xbfae1a9e	-1.3601873
27	0xbda1e6c1	-0.07905341
28	0xbe6af74a	-0.22945896
29	0xc06a15f8	-3.6575909
30	0x3f88ac73	1.0677627
31	0x3f800078	1.0000143
32	0x409cb47c	4.897032
33	0x4088756a	4.264333
34	0x3fe4e1e7	1.788144
35	0xc030af10	-2.760685
36	0xbe8063ef	-0.25076243
37	0xbee9fc5d	-0.4570035
38	0xbfba1008	-1.4536142
39	0x3e453175	0.19257148
40	0x4032c5c4	2.7933207
41	0x407edc11	3.9821818
42	0xbfb48b89	-1.4105083
43	0x407dffa9	3.9687293
44	0xc00c6e1d	-2.1942208
45	0xbf449029	-0.7678247
46	0x40573a89	3.3629477
47	0x406f6cd0	3.7410164
48	0x3ecd2f7a	0.40075284
49	0x406ea56c	3.7288465
50	0x4037d27f	2.8722227
51	0x3ea66c61	0.32504562
52	0xc064cc84	-3.5749826
53	0x3f1f39cd	0.6219757
54	0x3f006627	0.5015587
55	0xbd5ac530	-0.05341071
56	0xc09ca309	-4.8949018
57	0x402b218f	2.6739233
58	0xbf22f81c	-0.63659835
59	0xc0038f79	-2.0556319
60	0x409f40d9	4.976666
61	0x40763110	3.8467445
62	0xbfbd1547	-1.4772118
63	0xbfce236d	-1.6104561
64	0xc07e9f44	-3.9784708
65	0x409bd563	4.869798
66	0x3b3285dd	0.0027240433
67	0x3fa966c2	1.3234484
68	0x40248f89	2.5712607
69	0x3f506d45	0.8141673
70	0x40216ba4	2.5221949
71	0x407a2ab3	3.9088562
72	0xc012e7e6	-2.295404
73	0x3ed1aee3	0.4095374
74	0xbfc7cb24	-1.5608869
75	0x40353f40	2.8319855
76	0x4081f2d6	4.060893
77	0x3f16ec0f	0.58953947
78	0xbfc26ad2	-1.5188849
79	0x3f351269	0.70731217
80	0xbfc6e3bb	-1.5538248
81	0x3da47340	0.08029795
82	0xbffd7e9b	-1.9804262
83	0x3f0a1805	0.539429
84	0x3e1a052f	0.1504104
85	0xc00f4120	-2.23835
86	0x3fe9ce00	1.8265991
87	0x408a0fb9	4.3144193
88	0xbf20830d	-0.6269997
89	0x3f49d4cc	0.7884033
90	0x3f72d6f7	0.9485926
91	0x3f083464	0.5320494
92	0xbf037939	-0.51356846
93	0x3ea94ad7	0.3306491
94	0x3ef48592	0.47758156
95	0xbf9b843b	-1.2149729
96	0x406e2c02	3.721436
97	0xc0942fb6	-4.630824
98	0x3ef05f3b	0.46947655
99	0x3f58dfa9	0.8471628

layers.2.weight f4 [100]
0	0x3ea67f92	0.32519203
1	0x3f0e56f1	0.5560141
2	0x3eaabb67	0.33346102
3	0x3e580e2d	0.21099158
4	0x3e7ef826	0.24899349
5	0x3ea941b9	0.33057955
6	0x3ec83511	0.39102986
7	0x3ef8bb44	0.48580372
8	0x3e5e4445	0.2170573
9	0x3e9f6105	0.31128708
10	0xbe88379e	-0.26604933
11	0xbecbbe4f	-0.3979363
12	0x3e733b93	0.23753195
13	0x3e4cdffe	0.20007321
14	0x3e82124b	0.2540458
15	0xbe8ae2e4	-0.2712623
16	0x3e84a313	0.25905666
17	0xbee86c6f	-0.45395228
18	0x3f06c18e	0.5263909
19	0x3d8e0447	0.069344096
20	0x3e7da814	0.24771148
21	0x3e81fbec	0.25387514
22	0x3f237ca9	0.6386209
23	0x3f25a37e	0.64702594
24	0x3e8c5a31	0.2741256
25	0x3f69f9ba	0.9139668
26	0x3f88f14a	1.0698636
27	0x3f11e77b	0.56993836
28	0xbe997b66	-0.29976958
29	0x3ec38456	0.38186902
30	0x3e15c71e	0.14626738
31	0x3e850df9	0.25987223
32	0xbe5b765c	-0.2143187
33	0x3e90e38c	0.28298604
34	0x3eaa7140	0.33289528
35	0x3ec43c6e	0.38327354
36	0x3f20e375	0.6284707
37	0x3eb9df6b	0.36303267
38	0x3fee2912	1.8606284
39	0x3e9a246d	0.30105916
40	0x3e48e68c	0.19619197
41	0x3e8d575a	0.27605706
42	0x3e5ed6a2	0.21761563
43	0xbe593f6e	-0.21215603
44	0x3f31a7e1	0.6939679
45	0x3e8f5deb	0.2800134
46	0x3e8ae854	0.27130377
47	0x3e8723db	0.26394543
48	0x3e2a72c4	0.16645342
49	0x3e4f2a27	0.20230924
50	0x3e6a9c8f	0.22911285
51	0x3e7623aa	0.24037042
52	0xbfb03933	-1.3767456
53	0x3e975732	0.29558712
54	0x3e4ef5ff	0.20211028
55	0x3e9699c7	0.29414198
56	0x3e89929d	0.2686967
57	0x3ea309c9	0.31843403
58	0x3e64034a	0.2226688
59	0xbd858936	-0.065203115
60	0xbe9d4c57	-0.30722305
61	0x3e901892	0.28143746
62	0x3f07c5b4	0.53036046
63	0x3ee7a5f1	0.4524379
64	0x3f0e4a8c	0.555825
65	0x3e655fcf	0.2239983
66	0x3e5cde58	0.21569192
67	0x3e7bdd83	0.24596219
68	0x3e4d80c6	0.20068654
69	0x3e72ec13	0.23722868
70	0x3e91d3db	0.28481945
71	0x3e691822	0.22763112
72	0x3fb62d4f	1.4232577
73	0x3e73edb3	0.23821144
74	0x3f268622	0.6504842
75	0x3e96ea30	0.29475546
76	0x3e773af0	0.24143577
77	0xbeb3c856	-0.35113782
78	0x3f993a7b	1.1970972
79	0x3eb563f9	0.35427836
80	0x3fa92a8d	1.321611
81	0x3e8428ce	0.25812382
82	0xbfbda47f	-1.4815825
83	0x3e8225a6	0.25419348
84	0x3e57f397	0.21089016
85	0x3fb66222	1.4248698
86	0x3e846faa	0.25866443
87	0x3ea109d4	0.3145281
88	0x3effe680	0.49980545
89	0x3e40f415	0.1884311
90	0xbe9ccc4b	-0.30624613
91	0x3e842f00	0.25817108
92	0xbe8c37d7	-0.27386352
93	0x3e8df50e	0.27726024
94	0x3e7b3992	0.2453368
95	0x3e91b2d1	0.2845674
96	0x3e8c3071	0.27380708
97	0x3f271332	0.65263665
98	0x3ea063c3	0.31326112
99	0x3e70dc07	0.23521434

layers.2.bias f4 [100]
0	0x3e2d2920	0.16910219
1	0x3e61fe18	0.22069585
2	0xbd9c0dbd	-0.07619808
3	0x3d95df06	0.07317929
4	0x3e8074b2	0.2508903
5	0x3d76b701	0.06023312
6	0xbdad99f8	-0.08476633
7	0x3dc8cdd1	0.09804881
8	0x3e252f37	0.16131292
9	0xbc3b6183	-0.011436823
10	0x3c11cc7c	0.0088988505
11	0xbec9a89a	-0.39386445
12	0x3dae4190	0.08508599
13	0xbd725e7b	-0.059172135
14	0x3e4e1611	0.20125605
15	0xbdb3cd9a	-0.0877945
16	0xb8e22b60	-0.00010784599
17	0x3d9bd619	0.07609195
18	0x3e863ffa	0.26220685
19	0x3c54b31e	0.012982158
20	0x3cc8317d	0.02443766
21	0x3d4ad110	0.049515784
22	0x3d272773	0.040809106
23	0x3dd49797	0.10380476
24	0x3e1f0a62	0.15531304
25	0xbda09ecb	-0.07842787
26	0x3d9a0d5b	0.075220786
27	0x3d9cf3f9	0.076637216
28	0x3cd8bdcb	0.026457688
29	0x3bc268e0	0.005932912
30	0x3d4ff83d	0.050773848
31	0x3d9e0003	0.07714846
32	0xbdd495c5	-0.10380129
33	0xbde8498a	-0.113421515
34	0xbbd250f6	-0.0064183427
35	0x3d8e6789	0.069533415
36	0x3d4fd089	0.050735984
37	0x3e4d4f9c	0.200499
38	0x3d6ae7cd	0.05734997
39	0x3e1f2561	0.15541603
40	0x3d41be43	0.04730059
41	0x3e32902b	0.17437808
42	0x3dceaf99	0.10092086
43	0xbda94cbf	-0.08266591
44	0x3d2e143e	0.042499773
45	0x3c07c4aa	0.008286634
46	0x3e62c5bb	0.2214574
47	0x3e342430	0.1759193
48	0xbd804dc3	-0.06264832
49	0x3de5ec31	0.112266906
50	0xbbcddd1c	-0.006282462
51	0x3d28e5a6	0.041234635
52	0x3ba63d29	0.005073209
53	0x3e11569b	0.14193194
54	0x3d89e66b	0.06733402
55	0x3c5b979f	0.0134028485
56	0xbd2410b2	-0.040054984
57	0x3d8a7af4	0.06761733
58	0x3d753599	0.059865568
59	0x3d8c32b1	0.06845606
60	0xbe26f7e8	-0.16305506
61	0x3b85e8cc	0.0040865894
62	0x3e0d8f8a	0.13824287
63	0xbd8d514e	-0.06900273
64	0x3c479263	0.012180897
65	0x3e01e85a	0.12686291
66	0xbce35917	-0.027752442
67	0xbd544370	-0.051822126
68	0x3d9398fb	0.07206913
69	0x3dcb4448	0.09925133
70	0x3c08229a	0.008309031
71	0x3db3ad51	0.08773292
72	0xbd7cbc04	-0.061702743
73	0x3df65b93	0.12029185
74	0xbde29c50	-0.110649705
75	0xbd20ad47	-0.03922775
76	0x3dde74b6	0.108621046
77	0xbe80fc4f	-0.25192496
78	0x3d41083e	0.047127
79	0x3d2f2025	0.042755265
80	0xbde05c56	-0.10955112
81	0x3ca3a063	0.01997394
82	0xba644178	-0.00087072654
83	0xbcccaaef	-0.024983851
84	0x3e528d9c	0.20561832
85	0xbda1382d	-0.07872043
86	0x3c293d27	0.010329521
87	0x3e06a941	0.13150503
88	0x3e27e0e0	0.16394377
89	0x3de891fa	0.11355968
90	0x3ba0b4cd	0.0049043656
91	0x3e0a6415	0.13514741
92	0xbe011a84	-0.12607771
93	0x39db9ca8	0.00041887653
94	0x3e595dd8	0.21227205
95	0xbd197ca9	-0.0374724
96	0x3df50541	0.11963893
97	0x3da00f5d	0.0781543
98	0x3c4d0b2e	0.0125148725
99	0x3dd962c4	0.10614541

layers.2.running_mean f4 [100]
0	0x40b9eae9	5.8099256
1	0x3ffe7b1b	1.9881319
2	0x3facae83	1.3490757
3	0x413e1e48	11.882393
4	0x415306c7	13.189155
5	0x3d866642	0.06562473
6	0x3f13a6f3	0.5767662
7	0x3e080585	0.13283356
8	0x4152a6a7	13.165687
9	0x3f27d4ca	0.65559065
10	0x3d4f9692	0.050680704
11	0x40c775d5	6.233134
12	0x4163df1c	14.24197
13	0x41356f95	11.339742
14	0x416559ea	14.334452
15	0x3f0466ab	0.5171916
16	0x3e0010fe	0.12506482
17	0x00000004	6e-45
18	0x402c0984	2.6880808
19	0x00000004	6e-45
20	0x3e84cfa9	0.25939682
21	0x3dd2a7bb	0.10285898
22	0x3cf7c074	0.030243136
23	0x3e933d3e	0.28757662
24	0x4137289e	11.447416
25	0x06d87643	8.142394e-35
26	0x00000004	6e-45
27	0x3d892a04	0.06697467
28	0x3e1d812d	0.15381308
29	0x3e46c3f0	0.19410682
30	0x41416490	12.087051
31	0x411fc843	9.986392
32	0x415f5317	13.957786
33	0x4156d27d	13.426389
34	0x3e066bd9	0.13127078
35	0x3db6d06b	0.08926471
36	0x3d64ddc0	0.05587554
37	0x40e2ab57	7.0834155
38	0x3c054d46	0.008136099
39	0x412da8f5	10.853749
40	0x3ec09fb7	0.37621853
41	0x4154c65f	13.29843
42	0x00000004	6e-45
43	0x415d0672	13.814074
44	0x3ce1ab16	0.0275474
45	0x40a9a962	5.3019266
46	0x4153e34b	13.242991
47	0x414eb3c6	12.91889
48	0x41360010	11.375015
49	0x41531b88	13.1942215
50	0x3ea589fe	0.32331842
51	0x3e986328	0.2976315
52	0x3b1cff3c	0.0023955842
53	0x410b089a	8.6896
54	0x4137c7d1	11.486283
55	0x3e188d5c	0.14897674
56	0x3cdc830a	0.026917953
57	0x3e8cd8cd	0.27509156
58	0x40a6f6a6	5.2176085
59	0x00000004	6e-45
60	0x416812fc	14.504635
61	0x3f6a016e	0.9140843
62	0x00000004	6e-45
63	0x00000004	6e-45
64	0x3be667e0	0.007031426
65	0x4161492e	14.080366
66	0x3e8e2a56	0.27766675
67	0x3f1746d2	0.5909244
68	0x3ec443f0	0.38333082
69	0x4137d6a5	11.489903
70	0x3ea518b3	0.32245407
71	0x41581426	13.504919
72	0x000381a6	3.22016e-40
73	0x413bbcab	11.7335615
74	0x00000004	6e-45
75	0x3ef80576	0.48441666
76	0x414f51d2	12.957476
77	0x40c34786	6.102481
78	0x3be46a2a	0.0069706636
79	0x3e45e686	0.19326219
80	0x00000004	6e-45
81	0x3e308dbe	0.1724157
82	0x3b5c4702	0.003361166
83	0x3eb0d15c	0.3453473
84	0x40e23d98	7.070019
85	0x17057961	4.312782e-25
86	0x3f01daa3	0.5072424
87	0x4161d28c	14.113903
88	0x3fa7aa06	1.3098762
89	0x413a8d9d	11.659574
90	0x3e9a0b0c	0.30086553
91	0x41398beb	11.59666
92	0x40d95585	6.7916894
93	0x3e9d6ee8	0.30748677
94	0x40d4db89	6.6517987
95	0x409ce855	4.903361
96	0x4155c0c7	13.359565
97	0x3c110ad7	0.008852682
98	0x3dbb4a4b	0.0914503
99	0x413ca8cd	11.791211

layers.2.running_var f4 [100]
0	0x41907db8	18.061386
1	0x40ca2d01	6.3179936
2	0x404542ca	3.0822015
3	0x411cdbfa	9.803705
4	0x419d7627	19.682692
5	0x3e15ba81	0.14621927
6	0x3f8624cf	1.0479983
7	0x3f584f66	0.8449615
8	0x4196797e	18.809322
9	0x3f925b0f	1.1434039
10	0x3d482d27	0.048871186
11	0x41a0c515	20.096231
12	0x4165d952	14.365557
13	0x411729c1	9.447694
14	0x4189de0b	17.23342
15	0x3f99594d	1.1980377
16	0x3ee8aa7c	0.4544257
17	0x00000004	6e-45
18	0x40d59d98	6.6754875
19	0x00000004	6e-45
20	0x3f400b90	0.7501764
21	0x3e9e590d	0.30927315
22	0x3e41c1ab	0.18921535
23	0x3f774198	0.96584463
24	0x41919c1d	18.201227
25	0x049c8494	3.6797178e-36
26	0x00000004	6e-45
27	0x3e913c27	0.28366205
28	0x3eef187d	0.4669837
29	0x3e888463	0.26663503
30	0x411829f0	9.510239
31	0x417c93ce	15.786085
32	0x417269b9	15.150811
33	0x41504f82	13.019411
34	0x3ed24427	0.4106762
35	0x3e9a2b3b	0.30111107
36	0x3e8cf84e	0.2753319
37	0x41bac8ce	23.34805
38	0x3d2152e1	0.03938568
39	0x41529453	13.161212
40	0x3fa3acee	1.2787149
41	0x418713a4	16.88459
42	0x00000004	6e-45
43	0x4167bdc0	14.483826
44	0x3e34873a	0.1762971
45	0x415d22fb	13.82104
46	0x419dcb88	19.72438
47	0x41990144	19.125618
48	0x41290367	10.563331
49	0x41690bc1	14.56537
50	0x3f2ea8db	0.68226403
51	0x3f5db866	0.86609495
52	0x3b913108	0.004430894
53	0x41b25ae3	22.294378
54	0x41167990	9.404678
55	0x3f30def4	0.690902
56	0x3cd51a90	0.026013643
57	0x3f18d909	0.5970617
58	0x413db550	11.856766
59	0x00000004	6e-45
60	0x416db166	14.85581
61	0x3fd60e5a	1.672313
62	0x00000004	6e-45
63	0x00000004	6e-45
64	0x3c499102	0.012302639
65	0x416eb9be	14.920347
66	0x3f2e2953	0.68031806
67	0x3fa8d3bc	1.3189616
68	0x3fbba987	1.4661111
69	0x4108917b	8.535518
70	0x3f3ccbfa	0.73748744
71	0x4156e161	13.430024
72	0x0004f86d	4.5646e-40
73	0x411907f3	9.564441
74	0x00000004	6e-45
75	0x3f7db932	0.9911071
76	0x4188c56e	17.096401
77	0x418fc987	17.973402
78	0x3cd00acb	0.025395771
79	0x3f5a3804	0.85241723
80	0x00000004	6e-45
81	0x3f31144a	0.69171584
82	0x3c17e21d	0.009270218
83	0x3f5d1a5e	0.8636836
84	0x41997e03	19.18653
85	0x172bd599	5.552268e-25
86	0x3f9360b3	1.1513885
87	0x4152e80c	13.181652
88	0x4066a7cd	3.6039917
89	0x41423777	12.138541
90	0x3f882b8e	1.0638292
91	0x41329471	11.161241
92	0x416c074e	14.751783
93	0x3f54d074	0.83130574
94	0x41763e2c	15.390179
95	0x4130545f	11.020598
96	0x41a3e608	20.48732
97	0x3c953161	0.018212022
98	0x3e99b49f	0.30020615
99	0x4135b690	11.357071

layers.4.weight f4 [50, 100]
0	0x3dfb748e	0.122780904
1	0x3df46469	0.11933214
2	0x3f8a35d7	1.0797681
3	0x3e621c2c	0.22081059
4	0x3efb30cb	0.49060664
5	0x3e6d3673	0.23165302
6	0x3ec06b6e	0.37581962
7	0x3d154bef	0.03644937
8	0xbdbf5f0e	-0.09344302
9	0x3e79d9bc	0.24399465
10	0x3e066914	0.13126022
11	0x3dee605e	0.11639474
12	0x3e8a321a	0.2699135
13	0x3f160bac	0.5861156
14	0x3e26cc15	0.16288789
15	0xbe218b5a	-0.15775815
16	0xbe2f5102	-0.17120746
17	0x3e9d6d2e	0.3074736
18	0x3e68fb11	0.22752024
19	0xbf1f0e23	-0.62130946
20	0x3eddc87e	0.43317026
21	0xbd3485fd	-0.044073094
22	0xbf3e5370	-0.74346066
23	0x3e47bfbb	0.19506733
24	0x3dbe449d	0.09290431
25	0xbfaa0272	-1.3281996
26	0xbe5f8723	-0.21828894
27	0xbd781490	-0.060566485
28	0xbcd4424e	-0.025910523
29	0xbbd91801	-0.006625176
30	0x3f12602c	0.57177997
31	0xbe966b27	-0.29378626
32	0xbe6c92c1	-0.23102857
33	0xbe7a41d0	-0.24439168
34	0xbc4d8e0a	-0.012546072
35	0xbe3c46b5	-0.18386348
36	0xbe7fc805	-0.24978645
37	0x3e67d2b2	0.22638968
38	0xbf5fcb9c	-0.8742006
39	0x3ec9668d	0.39336053
40	0xbe897033	-0.26843414
41	0x3ed84c73	0.42245826
42	0xbe3f35f1	-0.18672921
43	0xbd6487f8	-0.055793732
44	0xbf49ef90	-0.7888117
45	0x3ea0e73a	0.31426412
46	0xbe314c84	-0.17314345
47	0x3ed39177	0.41321918
48	0xbe90d2f7	-0.28285953
49	0xbc84744a	-0.016168732
50	0xbda18942	-0.07887508
51	0xbe37ccc7	-0.1794921
52	0x3d57be5a	0.052671768
53	0xbe20ffc4	-0.15722567
54	0x3ee27a06	0.44233721
55	0xbed0c607	-0.40776083
56	0x3ea2d2e4	0.31801522
57	0x3dbe7519	0.09299678
58	0xbefbf898	-0.492131
59	0x3d3f4548	0.04669693
60	0x3e138798	0.14407194
61	0x3e6cea59	0.23136272
62	0x3e0a27c2	0.13491729
63	0xbec1bad1	-0.37837842
64	0xbf621a83	-0.88321704
65	0xbe1d9f15	-0.15392716
66	0x3ea4d56a	0.32194072
67	0x3f01a919	0.5064865
68	0xbe43c90d	-0.19119664
69	0x3b5d3e9c	0.0033759242
70	0xbe7bcbb6	-0.24589428
71	0xbe15313e	-0.14569566
72	0x3fd03703	1.6266788
73	0x3c89e2eb	0.016831836
74	0xbe8b0209	-0.2714999
75	0x3e886ea6	0.26646918
76	0x3f4b9d37	0.79536766
77	0xbda01d20	-0.07818055
78	0xbf607d0b	-0.876908
79	0xbe853f8d	-0.26025048
80	0xbe9b8136	-0.30372018
81	0xbe6cacb2	-0.23112753
82	0x3fcc1629	1.5944263
83	0x3d81f901	0.06346322
84	0xbea880ed	-0.32910863
85	0xbf593587	-0.848473
86	0xbe4ae49c	-0.1981377
87	0x3e8a22a3	0.2697955
88	0x3dff250d	0.12458239
89	0xbe8afb49	-0.2714484
90	0x3dea9c49	0.1145559
91	0xbcfec0c0	-0.03109777
92	0x3d3b1002	0.045669563
93	0xbeb4f2d9	-0.35341528
94	0x3cec3ec6	0.028838526
95	0xbdfdb53a	-0.12388082
96	0x3e17fec1	0.14843275
97	0xbfb470c5	-1.4096915
98	0xbddad5f6	-0.10685341
99	0x3e5aed31	0.21379544
100	0xc00fb388	-2.2453327
101	0xc03af881	-2.9214175
102	0xbbf6d6ae	-0.007532916
103	0xbec9cd30	-0.39414358
104	0xbf5df694	-0.86704373
105	0x3e60d86f	0.21957563
106	0x3ecd668f	0.40117308
107	0x3f182b57	0.5944113
108	0xbf3a9134	-0.7287781
109	0x3f57ee80	0.843483
110	0x3de64df6	0.112453386
111	0x406f39df	3.7379072
112	0xbe5c2939	-0.215001
113	0xbe8bbfe5	-0.2729484
114	0xbf954c3d	-1.1663891
115	0xbe97d685	-0.29655853
116	0xbeee1332	-0.4649902
117	0xbf71e36e	-0.94487655
118	0x3d805d52	0.062677994
119	0xbeeb1a36	-0.45918435
120	0x3ef2fc98	0.4745834
121	0xbef03050	-0.4691186
122	0x3e011779	0.1260661
123	0xbe38c42c	-0.18043584
124	0xbf5b8dd3	-0.8576328
125	0xbf17b4fb	-0.5926053
126	0x3e482bb5	0.19547923
127	0xbee649e4	-0.4497825
128	0xbdf66e58	-0.12032765
129	0x3d444614	0.047918394
130	0xbe6f0e4d	-0.23345299
131	0xbf971398	-1.1802855
132	0x3e859358	0.26088977
133	0x3e954e5d	0.2916135
134	0x3d7f91dc	0.06239496
135	0xbed4c397	-0.41555473
136	0xbefaa860	-0.48956585
137	0xbfa1261c	-1.2589755
138	0xbf2ac711	-0.6671
139	0xbf797c58	-0.9745536
140	0x3f2e3eaf	0.680644
141	0xbeff5e37	-0.49876568
142	0xbfab8492	-1.3399832
143	0x3e2550fe	0.16144177
144	0xbf39fcb1	-0.726512
145	0xbef2927a	-0.47377378
146	0xbf5fdb12	-0.8744365
147	0xbf725aa0	-0.9466953
148	0x3db6467d	0.08900163
149	0xbf9f31f9	-1.2437125
150	0x3f330f6a	0.69945395
151	0x3ee572e5	0.4481422
152	0x3f82dde0	1.0223961
153	0xbfa02e96	-1.2514217
154	0xbef70aad	-0.48250332
155	0x3f117c8c	0.5683067
156	0x3ffd1d43	1.9774555
157	0xbe71f965	-0.23630293
158	0xbef08a34	-0.4698044
159	0x3f4c3da2	0.79781544
160	0x3fad0652	1.3517554
161	0xbf83138a	-1.0240338
162	0x3f0c3621	0.54770094
163	0xbe335246	-0.17511854
164	0x3f4ebb75	0.80754787
165	0xbf816ff0	-1.0112286
166	0x3f914d0f	1.1351641
167	0x3faae2cb	1.3350462
168	0x3f8fb7ba	1.1227944
169	0xbf49c9fb	-0.7882382
170	0xbe12c68f	-0.14333557
171	0xbf1292dd	-0.57255346
172	0xbf586e9b	-0.8454377
173	0xbfc7fab0	-1.5623379
174	0xbec6c31e	-0.38820738
175	0x3d2a97b0	0.041648567
176	0xbf48a56b	-0.7837741
177	0x4003bfe7	2.0585878
178	0xbf2f07ac	-0.6837108
179	0xbd38ab43	-0.045085203
180	0xbd43400f	-0.047668513
181	0x3e8b67a1	0.272275
182	0x3fa0cfc6	1.2563407
183	0x3d092ab1	0.03348798
184	0xbf5d6e1e	-0.8649615
185	0xbfc2f53e	-1.5231092
186	0x3eb6db30	0.35714102
187	0xbfa987e2	-1.3244593
188	0xc012bb7e	-2.2926936
189	0xbf1b8bc2	-0.6076013
190	0xbf620dcc	-0.883023
191	0xbf937dc2	-1.1522753
192	0x3eea9dc4	0.4582349
193	0x3f8187ce	1.0119569
194	0xbf433619	-0.7625442
195	0xbf6d0750	-0.92589283
196	0xbfeed419	-1.8658477
197	0x3f0b87cd	0.5450409
198	0xbf0ddc38	-0.5541415
199	0xbfa9008c	-1.3203292
200	0x3e3e833d	0.18604751
201	0xbb80c500	-0.003929734
202	0x3f18ae3b	0.59640855
203	0xbd673689	-0.056448493
204	0x3f0a2712	0.53965867
205	0x3d81ac9e	0.06331752
206	0xbe7eee7d	-0.24895664
207	0xbd8b545b	-0.06803199
208	0x3bb481e1	0.005508647
209	0x3d425cdc	0.04745184
210	0x3e5008b7	0.20315824
211	0x3de99872	0.1140603
212	0x3e31787f	0.17331122
213	0x3d5187e3	0.051154982
214	0x3f29c560	0.66316795
215	0x3e5550f3	0.20831661
216	0x3d582055	0.05276521
217	0x3ebc1013	0.36731014
218	0xbe212809	-0.15737928
219	0xbc7c0775	-0.015382637
220	0xbf1a093a	-0.6017033
221	0x3e731dca	0.23741832
222	0xbf9fc30d	-1.24814
223	0xbdebc98a	-0.1151305
224	0x3e39032c	0.18067616
225	0xbefe1df1	-0.49632218
226	0xbd1454c7	-0.036213662
227	0xbea50071	-0.322269
228	0x3ec3fb2e	0.38277572
229	0x3dad5110	0.08462727
230	0x3dc34900	0.09535408
231	0x3d52bdae	0.051450424
232	0xbe152529	-0.14564957
233	0x3f05e74b	0.5230605
234	0xbe8b7bd7	-0.2724292
235	0xbe1ae8d2	-0.15127876
236	0xbe9db9a3	-0.30805692
237	0xbdefacfd	-0.11702917
238	0xbff937c4	-1.9470143
239	0x3ecc3ee0	0.3989172
240	0xbe2a2eb8	-0.16619384
241	0xbeadd4de	-0.33951467
242	0x3e08cca5	0.13359316
243	0x3eba5df3	0.36399803
244	0xbf810416	-1.0079372
245	0xbdb8a892	-0.09016527
246	0x3e7e069f	0.24807213
247	0x3e0e4bb3	0.13896064
248	0x3ecbd699	0.39812163
249	0xbea5f29b	-0.32411656
250	0x3d1c368a	0.03813795
251	0x3e42475e	0.18972537
252	0x3e978008	0.29589868
253	0xbc618704	-0.0137651
254	0xbd040c04	-0.03223802
255	0xbcbec7a3	-0.023288554

layers.4.bias f4 [50]
0	0x412227d2	10.134722
1	0x409d5dbd	4.9176927
2	0x4135ab97	11.354392
3	0x40b79bfe	5.737792
4	0x40f6fd71	7.7184377
5	0x40e4a8ff	7.1456294
6	0x41256614	10.337421
7	0x40da6196	6.8244123
8	0x40adac7b	5.4273047
9	0x411500b4	9.312672
10	0x40bbb022	5.8652506
11	0x40e5e21a	7.1838503
12	0x4123c918	10.236595
13	0x40e4f1da	7.154523
14	0x406706ea	3.609797
15	0x40c1fd7c	6.062193
16	0x4135046e	11.313581
17	0x4090beda	4.5232973
18	0x410e3c87	8.889777
19	0x40ad7c58	5.4214287
20	0x4138e7e2	11.556612
21	0x4104a644	8.290592
22	0x40b90f97	5.783153
23	0x40d39512	6.611947
24	0x4117faec	9.49876
25	0x4104fa3e	8.311094
26	0x412dd604	10.86475
27	0x40889e90	4.269356
28	0x40e7d2b9	7.244473
29	0x40cd97b6	6.4247694
30	0x4103a1bb	8.226985
31	0x412ffef7	10.999747
32	0x411faa24	9.979038
33	0x40ec4281	7.383118
34	0x41327abc	11.154964
35	0x40b2d13a	5.5880404
36	0x412e394d	10.888989
37	0x40f59f93	7.6757293
38	0x412a9c23	10.663119
39	0x40e4d767	7.151294
40	0x40be266d	5.9421906
41	0x41344e0d	11.269055
42	0x40e1c83c	7.0556927
43	0x4020f191	2.514744
44	0x41097c99	8.592919
45	0x41319a38	11.100151
46	0x4134d71f	11.30252
47	0x40bea117	5.9571643
48	0x408fdf66	4.4960203
49	0x40d17a83	6.546205

layers.6.weight f4 [50]
0	0x4201cc16	32.449303
1	0x42035e0c	32.841843
2	0x42061ebe	33.53002
3	0x4203a8ab	32.914715
4	0x42053557	33.30209
5	0x42037e81	32.87354
6	0x4201c38d	32.440968
7	0x4203b811	32.929752
8	0x42038866	32.8832
9	0x42042f5e	33.046257
10	0x4203ae99	32.920506
11	0x4205b768	33.429108
12	0x4202b712	32.67878
13	0x4204d3a5	33.206684
14	0x4203e666	32.975
15	0x4204a640	33.162354
16	0x4203b172	32.923286
17	0x4204d0c4	33.203873
18	0x4203e3ac	32.972336
19	0x42056b89	33.355015
20	0x4205e89c	33.477158
21	0x4204f58a	33.239784
22	0x4207591d	33.837025
23	0x4203ee74	32.982864
24	0x4202d9c3	32.712658
25	0x4205f4fb	33.48924
26	0x4206afc7	33.671658
27	0x4202afa9	32.671543
28	0x420455e7	33.08389
29	0x42039dbc	32.904037
30	0x42048fbc	33.140366
31	0x42056ad8	33.35434
32	0x42039d2b	32.903484
33	0x42043b7e	33.058098
34	0x42038196	32.87655
35	0x42033f82	32.81202
36	0x4203bde8	32.935455
37	0x4204206c	33.031662
38	0x4204528d	33.080616
39	0x42037e65	32.873432
40	0x4204e6af	33.225277
41	0x42055776	33.33541
42	0x4205727e	33.36181
43	0x42050ea4	33.264297
44	0x4201a0b3	32.406933
45	0x4203121d	32.76769
46	0x420708f2	33.758736
47	0x42054f74	33.32759
48	0x42037f13	32.874096
49	0x42032ae0	32.79187

layers.6.bias f4 [50]
0	0xc2733b11	-60.807682
1	0x4273066e	60.75628
2	0xc273c29b	-60.940044
3	0x42733829	60.804844
4	0xc272e0a9	-60.719395
5	0x42739ec0	60.90503
6	0xc2731048	-60.7659
7	0x4273a713	60.91316
8	0x42730b22	60.76087
9	0xc273e9ea	-60.97843
10	0x42730106	60.751
11	0x4273df4d	60.968067
12	0xc2731bd8	-60.77719
13	0x427398c4	60.899185
14	0x42736c26	60.855614
15	0x4273864b	60.881145
16	0xc273a968	-60.915436
17	0x42740704	61.00685
18	0xc27345c5	-60.818134
19	0x42735ce2	60.840706
20	0xc273e0be	-60.969475
21	0xc2733479	-60.801243
22	0xc273b144	-60.92311
23	0x4273a74e	60.913383
24	0xc2734f85	-60.827656
25	0xc273d13f	-60.95434
26	0xc273d5b2	-60.958687
27	0x42730f7b	60.765118
28	0xc27347e7	-60.820217
29	0x427337fc	60.804672
30	0xc2732864	-60.789444
31	0xc272efae	-60.734062
32	0xc273d51e	-60.958122
33	0xc273915e	-60.89196
34	0xc272c7a5	-60.694965
35	0x4273f78b	60.99174
36	0xc273d302	-60.956062
37	0xc27325fe	-60.7871
38	0xc272e58c	-60.724167
39	0x42740fb8	61.01535
40	0x42739565	60.895893
41	0xc2733f96	-60.812096
42	0x4273e2ac	60.97136
43	0x42730fa4	60.765274
44	0xc2731cc7	-60.778103
45	0xc2732235	-60.783405
46	0xc27387b3	-60.88252
47	0xc2738560	-60.88025
48	0x427371c0	60.861084
49	0x42744cff	61.07519

layers.6.running_mean f4 [50]
0	0x412a4f2c	10.644329
1	0x4061d4d3	3.5286148
2	0x413c3c82	11.764772
3	0x405fd4d3	3.4973648
4	0x410308f8	8.18969
5	0x40bbfecc	5.874853
6	0x413b48fa	11.705317
7	0x4091f2f8	4.5609093
8	0x40868f00	4.204956
9	0x41163e78	9.390251
10	0x40672101	3.6113894
11	0x40ba60c2	5.8243113
12	0x412e2432	10.883837
13	0x40c28ab2	6.0794306
14	0x4054cd93	3.3250473
15	0x4088201f	4.253921
16	0x413b5f42	11.710756
17	0x40863f53	4.19523
18	0x41147db2	9.280687
19	0x4083575a	4.104413
20	0x413e7362	11.90317
21	0x4109d072	8.61339
22	0x409dcec0	4.931488
23	0x40b25c04	5.5737324
24	0x4124e18a	10.305063
25	0x410c51da	8.769983
26	0x413d3c38	11.827202
27	0x406db581	3.7142031
28	0x40f5a984	7.676943
29	0x409b8231	4.8596425
30	0x41065917	8.39675
31	0x4137ade5	11.479955
32	0x412df3aa	10.871988
33	0x40f40c45	7.6264977
34	0x4139f65b	11.622645
35	0x40656579	3.5843184
36	0x41370f48	11.441231
37	0x4113595f	9.209319
38	0x41364ffc	11.394527
39	0x409e7540	4.9518127
40	0x4081f144	4.0607014
41	0x413eab9a	11.916895
42	0x409f61f4	4.980707
43	0x400315f7	2.0482156
44	0x411ef713	9.935321
45	0x413c48f9	11.767816
46	0x4137ea44	11.494694
47	0x40b2a76a	5.5829363
48	0x406b3c3d	3.6755517
49	0x40832aa4	4.098955

layers.6.running_var f4 [50]
0	0x404149d2	3.0201306
1	0x421188a1	36.383427
2	0x4039b1f5	2.9014866
3	0x4199476a	19.15987
4	0x427a02aa	62.5026
5	0x41cb6529	25.424395
6	0x4096bb4c	4.7103634
7	0x4200d4d2	32.207832
8	0x424748a1	49.820927
9	0x40894c5c	4.290571
10	0x41e2771e	28.308163
11	0x42035748	32.835236
12	0x404b9f4c	3.1815977
13	0x41c6077c	24.753654
14	0x42251057	41.265957
15	0x421a1f66	38.530663
16	0x406f4f79	3.7392256
17	0x42814e25	64.652626
18	0x40c711fe	6.2209463
19	0x422cbef3	43.186474
20	0x402755a8	2.614603
21	0x40a3224e	5.0979376
22	0x42f79979	123.79975
23	0x420908cf	34.258602
24	0x410c5f17	8.773215
25	0x4130f94a	11.060862
26	0x407930b8	3.8935986
27	0x42302661	44.03748
28	0x41a01c67	20.013868
29	0x4237f354	45.987625
30	0x40c52b91	6.161568
31	0x40459746	3.087358
32	0x408f8d45	4.485995
33	0x414986c3	12.595401
34	0x404ca184	3.1973581
35	0x420163c3	32.347424
36	0x406da907	3.7134416
37	0x41a29c25	20.326242
38	0x405752b4	3.3644228
39	0x420f7ab9	35.869846
40	0x422dccc7	43.449978
41	0x40899438	4.299343
42	0x41cf64d5	25.924234
43	0x41a7d8ea	20.980915
44	0x4192780a	18.308613
45	0x40649412	3.5715375
46	0x404a2238	3.1583385
47	0x40e3b6f5	7.1160836
48	0x423c3e71	47.060978
49	0x41d8f8d3	27.121496

layers.8.weight f4 [1, 50]
0	0xc2686089	-58.094273
1	0x42685fce	58.09356
2	0xc26809cb	-58.009563
3	0x4267efdb	57.984234
4	0xc268aaa1	-58.16663
5	0x4267ea70	57.978943
6	0xc2686a6c	-58.103928
7	0x42679766	57.89785
8	0x426854ba	58.08274
9	0xc267d61c	-57.95909
10	0x42686309	58.096714
11	0x4267e7d1	57.976383
12	0xc2688235	-58.127155
13	0x4267eabd	57.979237
14	0x42680944	58.00905
15	0x4267ee7d	57.9829
16	0xc267f24b	-57.986614
17	0x4267b162	57.923225
18	0xc2686df1	-58.107365
19	0x42685de1	58.09168
20	0xc267d771	-57.960392
21	0xc2688b55	-58.136066
22	0xc267d7e4	-57.96083
23	0x4267b577	57.92721
24	0xc2686790	-58.101135
25	0xc267f4cf	-57.98907
26	0xc267f638	-57.990448
27	0x426822d4	58.03401
28	0xc26845b6	-58.068077
29	0x42683f67	58.061916
30	0xc268a270	-58.15863
31	0xc2688e54	-58.138992
32	0xc2680ac8	-58.01053
33	0xc2683591	-58.05231
34	0xc2689bec	-58.152267
35	0x426797bd	57.898182
36	0xc2681110	-58.016663
37	0xc2688602	-58.130867
38	0xc268d5be	-58.208733
39	0x42679416	57.894615
40	0x4267e0a6	57.969383
41	0xc2684878	-58.07077
42	0x4267b9c3	57.931408
43	0x426864b1	58.09833
44	0xc268377e	-58.05419
45	0xc268308e	-58.047417
46	0xc26865b2	-58.09931
47	0xc2683e45	-58.06081
48	0x4267ef9c	57.983994
49	0x42678893	57.883373
